SANTHANA LAKSHMI K.pt (torch, 423478 bytes, 6 tensors)

fc1.weight f4 [120, 784]
0	0xbcb0af27	-0.021567894
1	0xbb68b613	-0.0035508915
2	0xbcef6191	-0.029221328
3	0x3ce290a1	0.027656855
4	0xbc7675bc	-0.0150427185
5	0xbd0cd8c2	-0.034386404
6	0x3cefa48c	0.029253267
7	0xbc3a90f3	-0.011387098
8	0xbba1b777	-0.004935201
9	0x3c87fa5e	0.016598877
10	0xbad1be25	-0.0016002102
11	0xbcfaa8ca	-0.030598063
12	0x3d268335	0.040652473
13	0x3d67d152	0.056596108
14	0x3c9b085c	0.018924884
15	0xbcd026f5	-0.025409201
16	0x3c7be113	0.015373486
17	0xbbf50a6e	-0.00747805
18	0x3c118c93	0.008883613
19	0xbc1a1053	-0.009403306
20	0x3cdfadc3	0.027304536
21	0xbc12cb37	-0.008959583
22	0xbccf44e3	-0.025301402
23	0xbc1b9193	-0.009495157
24	0x3b96dd2e	0.0046040034
25	0x3afec2b8	0.0019436693
26	0xbce1d5de	-0.0275678
27	0xbcea84a1	-0.028627696
28	0xbcc4c7ee	-0.024021115
29	0x3c9d4c75	0.019201497
30	0xbaa37bdc	-0.0012472826
31	0x3cb0ac75	0.021566609
32	0xbbfd6b9c	-0.0077337753
33	0xbc49e641	-0.012322963
34	0xbc86cc8e	-0.016454961
35	0xbcdbcf63	-0.026832288
36	0x3c4616da	0.012090409
37	0xbb3d0c1c	-0.002884633
38	0x3c93efc3	0.018058663
39	0xbd0fb075	-0.035080392
40	0x3d32af9e	0.043624513
41	0x3e08ba26	0.1335226
42	0x3e461e4a	0.19347492
43	0x3db1709e	0.08664058
44	0x3cb1f496	0.021723073
45	0x3caf0404	0.02136422
46	0xbcbabb64	-0.022794433
47	0xbb6b819d	-0.003593541
48	0x3c62c1bb	0.013840134
49	0xbc3defe9	-0.011592844
50	0xbadef678	-0.0017010709
51	0x3bc8578b	0.0061139516
52	0xbc755c3c	-0.014975604
53	0xbc1c59aa	-0.009542862
54	0xbcc1069c	-0.023562722
55	0xbcfaaf71	-0.030601235
56	0xbce20da8	-0.027594402
57	0x3d0571c3	0.032579195
58	0x3c8dbac0	0.017300963
59	0xbcd08698	-0.025454804
60	0x3c253758	0.010083996
61	0xbbbc400b	-0.005744939
62	0x3bcc36a0	0.0062320977
63	0xbd40302a	-0.046920933
64	0xbd623075	-0.055221993
65	0xbd3459f3	-0.044031095
66	0xbdbf6fc0	-0.093474865
67	0xbd72cc03	-0.059276592
68	0xbe09f665	-0.13472898
69	0xbd94923b	-0.07254454
70	0x3defcd65	0.11709098
71	0x3e7c6479	0.24647702
72	0x3d359a11	0.044336382
73	0x3dc02a05	0.093830146
74	0x3e1030a4	0.14081055
75	0x3dcade09	0.09905631
76	0x3d16ca1b	0.036813837
77	0xbd8c0200	-0.06836319
78	0xbd461719	-0.04836187
79	0xbc9c8173	-0.019104695
80	0xbd262044	-0.040558115
81	0xbd1dc564	-0.038518324
82	0xbc482b01	-0.012217284
83	0x3cb43ce5	0.022001693
84	0x3bc8fb4a	0.0061334716
85	0xbc2d7373	-0.010586607
86	0xbce3832d	-0.02777251
87	0xbd80d6b3	-0.062909506
88	0x3bfc3ed1	0.007697918
89	0xbd06b669	-0.032888804
90	0xbe26c455	-0.16285832
91	0xbdb9ac24	-0.09066036
92	0xbda00ecc	-0.07815322
93	0xbe0964b2	-0.13417318
94	0xbe83140c	-0.25601232
95	0xbdf3027e	-0.1186571
96	0xbd78bddb	-0.060727935
97	0xbdfacefb	-0.1224651
98	0xbbb828eb	-0.005620112
99	0x3c6afe13	0.014342803
100	0xbc9bb172	-0.019005511
101	0x3d6dff00	0.058104515
102	0x3cbaaa6e	0.022786345
103	0xbdeeaaf0	-0.116536975
104	0xbe077115	-0.13226731
105	0x3dc63c9b	0.09679528
106	0x3d40c4e0	0.047062755
107	0xbe8238a7	-0.25433847
108	0xbe27a84f	-0.16372798
109	0xb9985ed8	-0.00029062363
110	0x3ddf7a79	0.10912032
111	0x3c4c1977	0.012457243
112	0xbd098b2c	-0.03357999
113	0x3cd30140	0.025757432
114	0xbdfd7b75	-0.12377063
115	0x3d85870a	0.06519897
116	0x3d5b5e21	0.053556565
117	0x3d00320a	0.03129772
118	0x3c74a72e	0.014932437
119	0xbcdc8384	-0.02691818
120	0xbebf8495	-0.3740584
121	0xbe9dc59d	-0.3081483
122	0xbe1a1425	-0.15046747
123	0xbdf82aad	-0.12117515
124	0xbe60f877	-0.21969782
125	0xbe01cf46	-0.12676725
126	0xbc637ed7	-0.013885221
127	0xbcf54e10	-0.02994445
128	0xbe448289	-0.1919042
129	0xbe20f193	-0.15717153
130	0xbda9d824	-0.08293179
131	0xbe67af4a	-0.22625461
132	0xbe4ac37a	-0.19801131
133	0xbd3101fa	-0.043214776
134	0xbcca249c	-0.02467566
135	0x3cbda24d	0.02314868
136	0x3aaae51c	0.0013038251
137	0x3e29285c	0.16519302
138	0x3e06f99a	0.13181153
139	0xbd0d6bef	-0.03452676
140	0x3d00c052	0.03143341
141	0xbbf117d3	-0.0073575764
142	0xbe530aa3	-0.20609526
143	0xbdcfff55	-0.101561226
144	0xbd41caae	-0.04731243
145	0x3df45fa4	0.119323045
146	0x3d8367ea	0.064163044
147	0xbcff3d3c	-0.031157129
148	0xbcb4c447	-0.022066249
149	0x3d9acb1d	0.07558272
150	0x3d40ffbc	0.047118887
151	0x3daf07b3	0.085463904
152	0x3da50e29	0.080593415
153	0x3e0b0bdc	0.13578743
154	0x3d255d34	0.04037209
155	0xbde2d549	-0.11075837
156	0xbdcf96ac	-0.1013616
157	0xbd8f1552	-0.069864884
158	0xbddd68ad	-0.10810981
159	0xbd06a171	-0.032868806
160	0x3d1a984e	0.037742905
161	0xbdf0e022	-0.117615
162	0x3c8929a0	0.016743481
163	0x3d54c291	0.051943365
164	0x3d50ebfe	0.05100631
165	0x3dcf85c1	0.101329334
166	0x3b75096d	0.0037389651
167	0xbe0d458b	-0.1379606
168	0x3c61388a	0.01374639
169	0xbdba76ec	-0.09104714
170	0x3dd08d4a	0.10183199
171	0x3b9d4916	0.0047999723
172	0x3c547a0f	0.012968554
173	0x3db71f09	0.08941466
174	0xbe0152c5	-0.1262923
175	0xbe510d70	-0.20415282
176	0xbd193a93	-0.037409376
177	0x3dd459f3	0.10368719
178	0x3e3400fe	0.17578503
179	0x3df41dfc	0.119197816
180	0x3db8c096	0.09021108
181	0x3d9d2750	0.07673514
182	0x3d65bae5	0.05608644
183	0xbbaffa7c	-0.0053704362
184	0x3c95dfe4	0.018295236
185	0x3dbaf8ca	0.09129484
186	0x3e2de967	0.16983567
187	0x3e03baf0	0.1286428
188	0x3e4461d2	0.1917794
189	0x3e1d9b5c	0.15391296
190	0x3e369cd4	0.17833263
191	0x3e0d703e	0.13812348
192	0x3e8d8714	0.2764212
193	0x3e6353d2	0.22199944
194	0x3d9687d4	0.07350126
195	0xbe0e6939	-0.13907327
196	0x3ceba926	0.02876718
197	0xbe2bcd8c	-0.16777629
198	0x3dee582f	0.116379134
199	0xbd9a67e9	-0.075393505
200	0xbe03a676	-0.12856469
201	0xbe40986b	-0.18808143
202	0xbe266deb	-0.16252868
203	0xbe41a0b2	-0.18908957
204	0x3aa0b94e	0.0012262256
205	0x3dbf7c33	0.09349861
206	0x3df7efb4	0.121062666
207	0x3d0c70d3	0.034287285
208	0x3b52324f	0.0032073443
209	0x3dd5f8e5	0.104478635
210	0x3df8cb5f	0.12148165
211	0x3e365560	0.17806005
212	0x3e459ca0	0.19298029
213	0x3e89be6c	0.26903093
214	0x3e61bca0	0.22044611
215	0x3e5930ce	0.21210024
216	0x3e8fa684	0.2805673
217	0x3e3342a9	0.17505898
218	0x3e386c42	0.18010047
219	0x3ddf0a95	0.1089069
220	0x3d3fbfa4	0.046813622
221	0x3dd416dd	0.10355923
222	0x3db36b1b	0.08760663
223	0xbd630e04	-0.05543329
224	0xbc547f58	-0.012969814
225	0xbd131c67	-0.03591576
226	0xbd78dec2	-0.060759313
227	0xbdb958f0	-0.090501666
228	0xbe7aefa1	-0.24505474
229	0xbe591e1e	-0.21202895
230	0xbe172d31	-0.14763333
231	0xbd96d80d	-0.07365427
232	0xbd51fa25	-0.051263947
233	0xbcb6a7c8	-0.022296801
234	0xbdcd1223	-0.10013225
235	0xbc59e5ac	-0.013299387
236	0x3bfa0180	0.0076295733
237	0x3b401368	0.0029308442
238	0x3d122ca7	0.035687115
239	0x3e2ffd69	0.17186512
240	0x3e89d939	0.2692354
241	0x3e6b3079	0.2296771
242	0x3e58ad3e	0.21159837
243	0x3e02daf2	0.12778834
244	0x3e185588	0.14876378
245	0x3dece77e	0.11567591
246	0x3da3bd0b	0.079950415
247	0x3dee13ac	0.11624846
248	0x3e12c589	0.14333166
249	0x3d21fd02	0.039547928
250	0xbc959d60	-0.018263519
251	0x3db70b02	0.089376464
252	0xbd1f4710	-0.03888613
253	0x39a42c74	0.00031313638
254	0xbdf10837	-0.11769145
255	0xbdd4ac87	-0.103844695

fc1.bias f4 [120]
0	0x3da36197	0.07977598
1	0x3d7be344	0.061496034
2	0x3d70032c	0.058596775
3	0x3d8353fe	0.064125046
4	0x3da4bc03	0.08043673
5	0x3d4785a0	0.04871142
6	0xbd20d4af	-0.03926533
7	0x3d988269	0.07446749
8	0x3da8a5ae	0.08234726
9	0x3dc5713c	0.09640738
10	0x3c95d23c	0.018288724
11	0x3e21e47b	0.15809815
12	0x3cccee62	0.025016014
13	0x3d1dbca1	0.03850997
14	0xbd1c3b1e	-0.038142316
15	0x3e0e309e	0.13885733
16	0xbd107825	-0.03527083
17	0x3d700bd9	0.05860505
18	0x3ddd3a71	0.108021624
19	0x3d783dc0	0.060605764
20	0xbce1931b	-0.027535966
21	0xbced10b7	-0.028938634
22	0xbd5bc8ad	-0.053658176
23	0x3df53506	0.11973004
24	0x3cf60d21	0.030035557
25	0xbc272bf3	-0.010203349
26	0xbd1717f9	-0.036888096
27	0x3ca08a82	0.019597296
28	0xbe0968e8	-0.13418925
29	0xbb3fdf15	-0.0029277254
30	0x3e1afafc	0.15134805
31	0x3d41bbf3	0.047298383
32	0x3dfa5510	0.12223256
33	0xbd0a2cca	-0.03373412
34	0xbcab1890	-0.020885736
35	0x3b81a8fb	0.0039569116
36	0x3d4f2c15	0.05057915
37	0xbceffcec	-0.029295407
38	0x3dc39318	0.0954954
39	0x3ba97372	0.005171233
40	0x3ddceb5e	0.1078708
41	0x3ccd808a	0.025085706
42	0xbd28c1ff	-0.041200634
43	0x3cc9bdf6	0.024626713
44	0x3d816fd0	0.06320155
45	0x3d5eb357	0.05437025
46	0x3dc60559	0.09668989
47	0xbd98aecb	-0.07455214
48	0x3d13aa46	0.036051057
49	0x3e00dc47	0.12584029
50	0x3dad3718	0.08457774
51	0x3d678cc5	0.056530733
52	0xbbd3743d	-0.0064530657
53	0x3d394d39	0.04523966
54	0x3c3904c0	0.011292636
55	0x3de85773	0.113448046
56	0x3ac83c4c	0.0015276759
57	0x3c163af4	0.009169329
58	0x3df0f8f6	0.117662355
59	0x3e47d80c	0.19516009
60	0x3ded3194	0.11581722
61	0xbdf37a88	-0.11888605
62	0x3e1b262f	0.15151285
63	0x3de06164	0.10956076
64	0x3cbef49a	0.023309994
65	0x3d85e8ea	0.065385655
66	0xbdbfe4c5	-0.09369806
67	0xbdc8147e	-0.097695336
68	0x3d7c6df3	0.061628293
69	0x3d897aea	0.06712897
70	0x3d6ade81	0.057341103
71	0x3d873ce8	0.06603414
72	0x3d52d8ae	0.051476173
73	0x3d7f79c7	0.062371995
74	0x3e12e5e8	0.14345515
75	0x3d3777c3	0.044791948
76	0xbc3f24e3	-0.011666509
77	0x3c86a3af	0.016435472
78	0xbcb8fa00	-0.022580147
79	0xbc70546c	-0.014668565
80	0xbc74b37f	-0.014935373
81	0x3da0229d	0.07819102
82	0x3db33ea4	0.08752182
83	0x3dc559b0	0.09636247
84	0x3d94b962	0.072619215
85	0x3d85d32d	0.06534419
86	0xbd03f72a	-0.032218136
87	0xbc60ece4	-0.013728354
88	0x3db21704	0.08695796
89	0x3dca9bbd	0.09892986
90	0xbe120fbb	-0.14263813
91	0x3ddb3318	0.10703105
92	0x3dadcd87	0.08486467
93	0xbc95eead	-0.018302286
94	0x3cefb28f	0.029259948
95	0x3d717d54	0.058957413
96	0xbd1a2f53	-0.03764279
97	0xbbf6ba6e	-0.0075295484
98	0x3c1874ba	0.0093051735
99	0x3e1b7212	0.15180233
100	0xbd0a398b	-0.033746284
101	0x3df14774	0.11781207
102	0x3c0ced09	0.008601435
103	0x3df517d1	0.11967433
104	0x3dcedb71	0.10100449
105	0xbd566fd5	-0.052352745
106	0x3d2ff1cb	0.0429552
107	0x3e4fae59	0.20281352
108	0xbdb90fd8	-0.09036225
109	0xbe4d6591	-0.20058276
110	0x3dd95619	0.10612125
111	0xbd966b2a	-0.07344659
112	0x3e290162	0.16504434
113	0xbdc9efa0	-0.09860158
114	0x3d77a2f0	0.060458124
115	0x3d80cf69	0.0628956
116	0x3c70e3e0	0.014702767
117	0xbc1565b7	-0.009118489
118	0xbc146176	-0.00905644
119	0x3c9e618d	0.019333625

fc2.weight f4 [84, 120]
0	0xbe0a9031	-0.13531567
1	0xbe86156d	-0.26188222
2	0xbd2cd711	-0.04219729
3	0x3e2cd745	0.16878994
4	0xbe3738f1	-0.17892815
5	0x3df334ca	0.11875303
6	0x3df53e13	0.1197473
7	0x3e45f870	0.19333053
8	0x3d9d5649	0.07682473
9	0xbd2b6149	-0.041840825
10	0xbe8a7fb8	-0.27050567
11	0x3d23fce0	0.040036082
12	0x3d87e478	0.06635374
13	0x3dfd28cc	0.12361297
14	0xba18af18	-0.0005824431
15	0xbb9ee168	-0.004848648
16	0xbe9b5188	-0.3033564
17	0x3d37078c	0.04468493
18	0x3da2798f	0.07933342
19	0x3c729db1	0.014808104
20	0x3dab8656	0.08375232
21	0x3e15dadd	0.14634271
22	0x3d932593	0.07184901
23	0x3d6bc6d4	0.057562664
24	0xbe606122	-0.21912053
25	0xbd94aaf5	-0.0725917
26	0x3dadc2b6	0.08484404
27	0x3d0ba45a	0.034092285
28	0x3c25a315	0.010109683
29	0xbdb5a2cf	-0.08868944
30	0x3cf4153d	0.029795283
31	0xbdc0cfec	-0.09414658
32	0xbda6440b	-0.08118447
33	0xbea1ba8a	-0.3158763
34	0x3d321b68	0.043483168
35	0x3d24c1b3	0.04022379
36	0x3d9a4281	0.07532216
37	0x3d97fb90	0.074210286
38	0x3dcc19e9	0.099658795
39	0xbe710488	-0.23536885
40	0x3d447122	0.047959454
41	0x3dbb7b5f	0.091543905
42	0x3cb5a3c6	0.02217282
43	0x3dd30ded	0.103053905
44	0x3d83dbbc	0.064383954
45	0xbe4d6bc4	-0.2006064
46	0x3da01c51	0.07817901
47	0xbda792e6	-0.081823155
48	0x3e1128e2	0.14175752
49	0xbd5a3ecf	-0.053282555
50	0xbc0a4267	-0.008438683
51	0x3c1c1ebd	0.009528813
52	0x3cc66549	0.024218218
53	0x3ca3ab3d	0.019979114
54	0x3dc1aa38	0.09456295
55	0xbe061d18	-0.13097036
56	0xbe0a7fb2	-0.13525274
57	0x3cf3ae5f	0.029746233
58	0x3d90ed9a	0.07076569
59	0xbe591258	-0.21198404
60	0xbd972ca2	-0.0738156
61	0x3d9c1780	0.0762167
62	0x3d828527	0.06373053
63	0xbdb982f5	-0.09058181
64	0x3d83d2e5	0.06436709
65	0x3d51a0ee	0.051178865
66	0xbe8e46e1	-0.2778845
67	0xbe230fce	-0.15923998
68	0xbd08e616	-0.033422552
69	0x3e11ce6a	0.14238897
70	0xbe784bd7	-0.2424768
71	0xbba5da67	-0.005061436
72	0xbe09b3ee	-0.13447544
73	0xbe57dcb6	-0.21080288
74	0xbc9a376d	-0.018825257
75	0xbdcf4789	-0.10121066
76	0x3e147195	0.14496453
77	0xbe0ee043	-0.13952737
78	0xbd3c0ec1	-0.045912508
79	0x3d9caf81	0.07650662
80	0xbd2a747a	-0.041614987
81	0x3de21e9c	0.110409945
82	0xbd00455b	-0.031316143
83	0x3ddfbb76	0.10924427
84	0x3e3f9793	0.18710165
85	0x3cae0f9c	0.021247678
86	0x3d13ffa2	0.036132462
87	0x3d81d91a	0.06340237
88	0x3db1fbbd	0.086905934
89	0x3e0478f2	0.12936762
90	0xbe2980ab	-0.16552989
91	0xbe1590f7	-0.14606081
92	0x3dcdd141	0.10049678
93	0x3e153ac5	0.145732
94	0x3e068602	0.13137057
95	0x3d99abbb	0.07503458
96	0x3e7ed94e	0.24887583
97	0x3d5de670	0.05417484
98	0xbd719ed0	-0.058989346
99	0xbd24b5f6	-0.040212594
100	0x3e23c820	0.1599431
101	0x3c4972bd	0.012295422
102	0xbc48250e	-0.012215866
103	0x3c92b7cb	0.017909905
104	0x3de94c35	0.113914885
105	0x3dd05d2f	0.10174023
106	0xbc718ab5	-0.014742543
107	0x3b229c1a	0.0024812282
108	0xbdc9ffd2	-0.09863247
109	0xbdaee544	-0.08539823
110	0x3d366006	0.04452517
111	0x3ca76611	0.020434411
112	0xbc0fe516	-0.008782646
113	0xbb32371f	-0.00271935
114	0xbbb4ac48	-0.0055137016
115	0xbd07d042	-0.033157595
116	0xbcafeb95	-0.021474639
117	0xbe633d58	-0.2219137
118	0xbd82da65	-0.06389312
119	0xbc8537bd	-0.01626193
120	0x3e934767	0.28765413
121	0x3d56f6aa	0.05248133
122	0xbe0e1f44	-0.13879114
123	0xbc8059a5	-0.015667746
124	0x3e08f931	0.13376309
125	0xbd486bc0	-0.048930883
126	0x3e0c61c9	0.13709177
127	0xbcc8b9f1	-0.024502726
128	0xbca2686e	-0.019825187
129	0xbc0afa3c	-0.008482512
130	0x3ea2852e	0.31742233
131	0xbd7c5a4e	-0.06160956
132	0x3db70923	0.089372896
133	0xbc4dfa88	-0.012571938
134	0x3da36e75	0.079800524
135	0xbe30ef6b	-0.1727883
136	0x3ecab656	0.39592236
137	0xbe0ca24d	-0.13733788
138	0x3e0ed471	0.13948227
139	0xbd88927c	-0.06668565
140	0xbcac4170	-0.021027297
141	0x3c15f6d7	0.0091530895
142	0x3e4859bb	0.1956548
143	0xbdb046d3	-0.08607259
144	0xbe1a1617	-0.15047489
145	0x3d34f593	0.04417951
146	0x3d899df4	0.0671958
147	0xbdc6cde4	-0.09707239
148	0x3e9f2044	0.31079304
149	0x3db204ae	0.08692299
150	0xbd2ee51e	-0.042698972
151	0xbdc8c01a	-0.098022655
152	0x3d924290	0.07141602
153	0x3ce27c1a	0.027647067
154	0x3de4835f	0.111578695
155	0x3ea3d4ac	0.31998193
156	0x3c1b7732	0.009488868
157	0xbba00160	-0.0048829764
158	0xbd485c3c	-0.048916087
159	0x3e1dcf3e	0.15411088
160	0x3bb13199	0.005407524
161	0xbccfcbb0	-0.02536568
162	0x3d91fc39	0.07128186
163	0x3d0517ce	0.032493405
164	0xbd3801ae	-0.044923477
165	0x3e74dcb3	0.23912315
166	0x3dc722d7	0.09723442
167	0xbd5129d9	-0.0510653
168	0xbc83b6fb	-0.016078463
169	0xbd93ada1	-0.072108515
170	0xbe44b6f1	-0.19210412
171	0xbcbdf24d	-0.023186827
172	0x3d90cc90	0.07070267
173	0x3d4fa5a9	0.050695095
174	0x3d7800ff	0.060547825
175	0xbe6d553e	-0.23177049
176	0x3db454dc	0.08805248
177	0x3dcb356a	0.09922297
178	0x3c8cb431	0.017175766
179	0x3e848733	0.258844
180	0xbddec1c1	-0.108767994
181	0x3a2d7cf4	0.0006618046
182	0xbe5a2d72	-0.21306399
183	0xbe42140d	-0.18952961
184	0x3de4c5a8	0.111705124
185	0x3e43516d	0.1907403
186	0x3eb1be55	0.34715524
187	0x3dbc6622	0.09199168
188	0x3dd194be	0.102334484
189	0xbdc0805f	-0.09399485
190	0x3e228981	0.15872766
191	0xbe1297d5	-0.14315732
192	0x3e6f60e0	0.23376799
193	0xbd4ad444	-0.04951884
194	0x3c0dc2ae	0.008652372
195	0x3d8c80b1	0.068604834
196	0x3dc6fd4c	0.09716281
197	0x3e3d7f16	0.1850551
198	0x3e546dc4	0.20744997
199	0xbdb44637	-0.08802455
200	0x3e18ab4e	0.14909098
201	0x3d5b26de	0.053503864
202	0x3dad0661	0.08448482
203	0xbe426b43	-0.1898623
204	0xbe13b9f2	-0.14426401
205	0xbdd913ed	-0.10599504
206	0x3e22c02b	0.15893619
207	0x3b540061	0.0032348859
208	0x3da370f3	0.07980528
209	0x3d29a3f6	0.04141613
210	0x3e645e8d	0.22301693
211	0x3e6e0f99	0.23248138
212	0x3ba20476	0.0049443794
213	0x3d31a388	0.043368846
214	0xbdb5f7f0	-0.08885181
215	0xbcdbd15e	-0.026833232
216	0x3cb5d571	0.022196503
217	0x3ce2d875	0.027691105
218	0x3d2f231a	0.042758085
219	0x3e956fe1	0.2918692
220	0xbd916b05	-0.071004905
221	0x3e042d70	0.12907958
222	0xbdba08ff	-0.09083747
223	0x3c9ec37d	0.019380325
224	0xbbcf957e	-0.0063349595
225	0xbdf43fc4	-0.11926225
226	0x3c9c5818	0.019084975
227	0x3e5cad57	0.21550499
228	0x3e14a235	0.14515002
229	0x3e953f1a	0.29149705
230	0x3e901362	0.28139788
231	0xbc660469	-0.014039137
232	0xbcfa0e57	-0.030524416
233	0x3d2e9c09	0.042629275
234	0x3db388c7	0.087663226
235	0x3c89caf8	0.016820416
236	0x3d9cd405	0.07657627
237	0xbc1a605b	-0.009422387
238	0x3e101177	0.14069162
239	0xbd243359	-0.04008803
240	0x3eb996d8	0.36247897
241	0x3e2b8cc8	0.16752923
242	0x3e451b09	0.19248594
243	0xbcfe88b9	-0.031071054
244	0x3d71fb47	0.059077527
245	0xbe9dc3e2	-0.3081351
246	0xbd8ff099	-0.07028312
247	0x3de67875	0.11253444
248	0xbd3377ed	-0.043815542
249	0x3e845db3	0.25852737
250	0x3e3c2d14	0.18376571
251	0x3df30978	0.118670404
252	0xbd84a774	-0.06477252
253	0x3df284d3	0.118417405
254	0x3e211b2e	0.15733024
255	0xbd2b93dd	-0.04188906

fc2.bias f4 [84]
0	0x3a9e4dfe	0.0012077687
1	0xbdc68d1b	-0.096948825
2	0x3e3c296b	0.18375175
3	0x3dd080ba	0.10180803
4	0x3d73206c	0.05935709
5	0x3d8984cc	0.06714782
6	0xbd390135	-0.045167167
7	0x3dd8cef4	0.10586348
8	0x3ccce3de	0.025011
9	0x3d222100	0.039582253
10	0x3dc0a7f3	0.09407034
11	0x3e747d63	0.23875956
12	0xbdca3a0e	-0.09874354
13	0x3e265b25	0.16245706
14	0x3e39720b	0.1810991
15	0x3dfce273	0.12347879
16	0x3df2dd20	0.118585825
17	0x3ddf5255	0.109043755
18	0xbccef5eb	-0.025263747
19	0x3d027928	0.031853825
20	0xbd9e7b01	-0.07738305
21	0x3e468f48	0.19390595
22	0x3db5502e	0.08853184
23	0x3dc2d62c	0.09513506
24	0x3d8aa13b	0.067690335
25	0x3d4e4fc1	0.050369028
26	0xbd80b6f6	-0.06284897
27	0x3cb26bb3	0.02177987
28	0x3ddb9547	0.10721832
29	0x3d91aee3	0.07113435
30	0x3d262295	0.040560324
31	0xbde3f6bd	-0.11131046
32	0x3d6d3223	0.057909142
33	0xbdfbb869	-0.12291033
34	0x3db0522d	0.08609424
35	0xbd1c0fdf	-0.038101073
36	0x3d8e815f	0.06958269
37	0xb978315f	-0.00023669515
38	0x3c16cbc1	0.009203852
39	0x3c8686c4	0.016421683
40	0xbc024589	-0.007951149
41	0x3c9f3e7e	0.019438978
42	0xbd06b42d	-0.032886673
43	0xbd9116af	-0.07084405
44	0x3dcdcc21	0.100487
45	0xbd94e3e9	-0.07270033
46	0xbce356b4	-0.027751304
47	0x3d3e3126	0.04643359
48	0x3df745bf	0.1207385
49	0x3d6c5260	0.057695746
50	0xbb2c5b9d	-0.0026299723
51	0x3e056ed7	0.13030563
52	0x3e155596	0.1458343
53	0x3dc18696	0.09449498
54	0x3e05bc24	0.13060051
55	0x3dc87f32	0.097898856
56	0x3d2e6c36	0.042583667
57	0x3e2fc4ec	0.17164963
58	0xbd4cb218	-0.04997453
59	0x3d9ac5a4	0.07557228
60	0x3e2a088e	0.16604826
61	0x3e069da5	0.13146074
62	0x3ba83849	0.005133663
63	0x3dc62325	0.09674672
64	0x3d89afab	0.06722959
65	0x3debeafe	0.115194306
66	0x3e41159a	0.18855897
67	0xbddccf1e	-0.10781692
68	0x3e12e096	0.14343485
69	0x3cd0aeff	0.02547407
70	0x3e07e4d5	0.13270886
71	0x3db6f01a	0.089325145
72	0x3dc71715	0.097211994
73	0xbd8be73f	-0.06831216
74	0x3d4ebd0b	0.050473254
75	0x3c98ee39	0.01866828
76	0xbdc190d2	-0.094514504
77	0x3e22df5e	0.1590552
78	0x3db763ad	0.089545585
79	0x3d6bdec1	0.05758548
80	0x3d9224c2	0.07135917
81	0xbd684ffc	-0.056716904
82	0x3dbdbddd	0.09264729
83	0xbde0e538	-0.1098122

fc3.weight f4 [10, 84]
0	0x3e317fa4	0.17333847
1	0xbb6b3a5d	-0.0035892942
2	0xbe901470	-0.28140593
3	0xbe92a302	-0.2863999
4	0x3e2bd3a8	0.16779959
5	0xbdce95e9	-0.10087187
6	0xbe655e11	-0.22399165
7	0xbe95f2bb	-0.2928675
8	0x3e5a4604	0.21315771
9	0xbd9ee2c4	-0.07758096
10	0xbe8fb76e	-0.28069633
11	0xbea11860	-0.3146391
12	0x3dd16a0d	0.10225306
13	0x3e1cb68b	0.1530401
14	0xbdba41de	-0.090945944
15	0xbe4696d5	-0.19393475
16	0xbe885718	-0.26628947
17	0x3d4b2088	0.04959157
18	0x3d58713c	0.052842364
19	0x3eb49175	0.35267225
20	0xbd937694	-0.07200351
21	0xbb3532b8	-0.002764864
22	0xbc7d4a44	-0.015459601
23	0x3daaa578	0.08332342
24	0x3e3366ff	0.17519759
25	0xbd097eb9	-0.033568118
26	0xbd43d5c7	-0.047811296
27	0xbeaf56c7	-0.34245893
28	0xbe05501c	-0.1301884
29	0xbe9e1cce	-0.3088135
30	0xbe889a96	-0.2668044
31	0x3d317a08	0.04332927
32	0xbe64d4d6	-0.22346815
33	0xbe0600a7	-0.13086186
34	0x3d6038bd	0.05474161
35	0xbdd00b6e	-0.1015843
36	0x3decff14	0.1157209
37	0x3d8d8d0c	0.06911668
38	0x3df8f89c	0.121567935
39	0x3d80f1a3	0.062960885
40	0xbe698380	-0.2280407
41	0x3dab7ef4	0.08373824
42	0x3e354f71	0.17706086
43	0x3dc0d265	0.094151296
44	0x3e12fc27	0.14354001
45	0x3e8a20f2	0.2697826
46	0x3e12b804	0.14328009
47	0xbe887614	-0.26652586
48	0x3dd86757	0.105665855
49	0xbe224c67	-0.15849458
50	0xbe48c2c9	-0.19605555
51	0xbe7f862a	-0.24953523
52	0xbe67eecd	-0.22649689
53	0xbd824b81	-0.063620575
54	0x3e09b5fa	0.13448325
55	0xbea86fd1	-0.3289781
56	0x3e2e7749	0.17037691
57	0xbd8fa22d	-0.070133545
58	0x3e398353	0.18116502
59	0xbd4bdd3c	-0.049771532
60	0x3e0a88ad	0.135287
61	0x3e046a0c	0.12931079
62	0xbe84b3f2	-0.25918537
63	0xbeac833a	-0.33693868
64	0xbdb958b4	-0.09050122
65	0x3dbd84eb	0.09253868
66	0xbe1954ae	-0.14973709
67	0xbe04001b	-0.12890665
68	0x3e06f5d1	0.13179709
69	0xbd8a37ae	-0.06748901
70	0xbd307098	-0.043076128
71	0x3bcacfdb	0.006189329
72	0x3e33515c	0.17511505
73	0x3e4c6501	0.19960405
74	0x3e9263cb	0.2859176
75	0xbe6bc624	-0.23024803
76	0x3da92eaf	0.08260857
77	0x3d101a4a	0.03518132
78	0x3da8e176	0.08246128
79	0x3e3722fa	0.17884436
80	0xbec3e8ca	-0.3826354
81	0xbdd6e53c	-0.10492942
82	0x3d600776	0.054694615
83	0xbe3dea98	-0.18546522
84	0xbd0bfd97	-0.03417739
85	0xbe466369	-0.1937386
86	0x3e05d1f0	0.13068366
87	0x3e531f79	0.20617475
88	0xbebc8a80	-0.36824417
89	0xbd36f27d	-0.04466485
90	0x3df5ea40	0.1200757
91	0x3df9c517	0.12195795
92	0xbdef7a69	-0.1169327
93	0x3e6e8fd0	0.23297048
94	0x3d84b81b	0.06480428
95	0xbdecb311	-0.11557592
96	0xbdbd07a6	-0.092299744
97	0xbe48998f	-0.19589828
98	0xbcc4cf63	-0.024024671
99	0x3e31734d	0.1732914
100	0x3e26b6d4	0.16280681
101	0xbe47f107	-0.19525538
102	0x3dbfee52	0.09371628
103	0x3e07373f	0.13204668
104	0x3cd2fa90	0.025754243
105	0xbeaa06e5	-0.33208385
106	0xbe0acea0	-0.13555384
107	0xbe093089	-0.13397421
108	0x3e49b9e6	0.19699821
109	0xbd4de379	-0.050265763
110	0xbde3008f	-0.11084091
111	0xbebb6727	-0.36602136
112	0x3dde2bd8	0.10848206
113	0x3e9cfbc1	0.30660823
114	0x3e393e15	0.18090089
115	0xbd27ac26	-0.040935658
116	0x3d44c21b	0.048036676
117	0x3dcd3969	0.10020716
118	0xbd82effd	-0.063934304
119	0x3d0c4c89	0.034252677
120	0xbd8b8ab6	-0.068135664
121	0x3da6d96e	0.0814694
122	0x3b9a8731	0.004715823
123	0x3e0f2b0f	0.1398127
124	0xbe0a3b0a	-0.13499084
125	0x3e7dcba3	0.24784712
126	0xbb9553db	-0.0045571155
127	0x3d8acd62	0.06777455
128	0xbe4c840a	-0.19972244
129	0xbd9894b3	-0.07450237
130	0x3da3f5ea	0.08005889
131	0x3e1053dc	0.1409449
132	0xbeb28615	-0.3486792
133	0x3d98294b	0.07429751
134	0xbe393795	-0.18087609
135	0xbe3d1f2c	-0.18468922
136	0x3e411afb	0.18857948
137	0xbee8dbe4	-0.45480263
138	0x3d7d602e	0.061859302
139	0x3c85a412	0.016313586
140	0x3ddc524c	0.107578844
141	0x3d523db8	0.05132839
142	0xbe828b81	-0.25497058
143	0xbe264c29	-0.1623999
144	0xbe81483d	-0.25250426
145	0xbe9cdbb3	-0.30636367
146	0x3de58f00	0.11208916
147	0x3dd94685	0.10609154
148	0xbe7d1a17	-0.24716984
149	0x3e7049cb	0.2346565
150	0xbdd68300	-0.10474205
151	0xbb73f3f9	-0.0037224276
152	0xbe64f92c	-0.22360677
153	0xbe2ea352	-0.1705449
154	0x3e7ea401	0.2486725
155	0xbe034011	-0.12817408
156	0x3ed22b25	0.41048542
157	0xbe817501	-0.2528458
158	0x3dce7741	0.1008134
159	0xbe8691a9	-0.26283005
160	0x3d8e4332	0.0694641
161	0xbdfc1e64	-0.12310484
162	0xbddf4318	-0.10901469
163	0xbe3ac29d	-0.18238302
164	0xbd19f470	-0.03758663
165	0xbd57e539	-0.052708838
166	0xbda3ae3d	-0.07992218
167	0xbc8233a2	-0.015893761
168	0xbe73cdc0	-0.23808956
169	0xbc9bfc06	-0.019041073
170	0xbea26d0c	-0.3172382
171	0xbe77997c	-0.24179643
172	0xbdb97bd4	-0.090568215
173	0x3ea24050	0.31689692
174	0xbecdb2e6	-0.4017555
175	0x3de5d529	0.11222298
176	0xbdedb3d2	-0.11606564
177	0xbe706bde	-0.23478648
178	0x3dc4b9d7	0.09605759
179	0xbd630af7	-0.05543038
180	0xbd9117eb	-0.0708464
181	0xbe2935c1	-0.16524412
182	0x3c4c0354	0.012451965
183	0xbe6eac01	-0.23307802
184	0xbe1d1869	-0.15341343
185	0x3d3d178b	0.04616503
186	0x3c89e118	0.016830966
187	0xbdcdd687	-0.100506835
188	0x3d345cbd	0.044033755
189	0x3d262be3	0.040569197
190	0xbe043436	-0.12910542
191	0x3e386d5a	0.18010464
192	0x3e1f673d	0.15566726
193	0x3deeb5b7	0.11655753
194	0x3df360c5	0.11883692
195	0x3dd21c08	0.10259253
196	0x3d864e7b	0.06557938
197	0x3e04d77d	0.12972827
198	0x3e02b3d0	0.12763906
199	0x3b53a7ae	0.003229599
200	0x3ea1388d	0.31488457
201	0x3c879634	0.016551115
202	0x3e24dc05	0.16099556
203	0x3e2034b6	0.15645108
204	0xbe2d9da2	-0.16954663
205	0x3e2d5b9c	0.16929477
206	0x3da30b56	0.079611465
207	0x3e0317a8	0.12801993
208	0xbdb68e9a	-0.08913918
209	0xbe497ce7	-0.19676553
210	0x3e4194f2	0.18904474
211	0x3d279f84	0.04092361
212	0x3d945e26	0.0724452
213	0x3df05e15	0.11736695
214	0xbd82608b	-0.0636607
215	0xbe8e7949	-0.27826908
216	0x3d6ca40b	0.05777363
217	0x3e15f770	0.14645171
218	0xbe41ab6b	-0.18913047
219	0xbeaa6fc6	-0.332884
220	0x3dfc95f2	0.12333287
221	0xbdf69b9e	-0.120414004
222	0xbe11b898	-0.14230573
223	0xbeb72217	-0.35768196
224	0x3d718adf	0.05897033
225	0xbec0e3c0	-0.3767376
226	0x3dfea895	0.12434498
227	0xbe8dec99	-0.27719572
228	0x3e143d2a	0.14476457
229	0xbdbcd671	-0.09220589
230	0xbe95219c	-0.29127204
231	0xbd68feed	-0.05688374
232	0xbdd730ef	-0.1050738
233	0xbe3d614f	-0.18494152
234	0xbe093c50	-0.13401914
235	0x3e2c49fa	0.16825095
236	0xbd85e08e	-0.06536971
237	0xbcddb531	-0.027063938
238	0xbcde1c83	-0.027113205
239	0x3dd72cea	0.105066136
240	0x3e41ce1e	0.18926284
241	0xbe2d5c88	-0.16929829
242	0x3d294dce	0.041333966
243	0x3e5e134b	0.21687047
244	0xbdc147c7	-0.094375186
245	0x3e81fe92	0.25389534
246	0xbd014dd3	-0.03156836
247	0xbdcb8000	-0.099365234
248	0xbe24f0bf	-0.16107462
249	0x3de19c05	0.110160865
250	0xbdf2ccfd	-0.11855505
251	0x3dcdb6bb	0.10044619
252	0xbc60d63b	-0.0137229515
253	0x3e6cf378	0.23139751
254	0xbce3049d	-0.02771216
255	0x3de89064	0.11355665

fc3.bias f4 [10]
0	0xbe12fe49	-0.14354815
1	0xbcf050c2	-0.029335383
2	0x3bc6f241	0.0060713594
3	0xbe0eddc9	-0.13951792
4	0xbc973031	-0.018455597
5	0x3d81698e	0.06318961
6	0x3cc153e5	0.023599574
7	0xbc8e4a0a	-0.017369289
8	0x3e146ea8	0.14495337
9	0x3cd33bc7	0.02578534
